models/toto_v1.onnx (onnx, 172402 bytes, 9 tensors)

sequential_1/dense_1_2/Cast/ReadVariableOp:0 f4 [32, 1]
0	0x3ea1242e	0.31472915
1	0x3ea99210	0.3311925
2	0xbed1048b	-0.4082378
3	0x3eae577b	0.34051117
4	0x3efce015	0.4938971
5	0x3dadc6e0	0.08485198
6	0x3ebc2b4c	0.36751783
7	0x3d526775	0.051368196
8	0x3ec3f2f5	0.382713
9	0x3f38e1cc	0.7221954
10	0xbfdb6569	-1.7140323
11	0xbef27973	-0.47358283
12	0xbe3d51d4	-0.18488246
13	0x3f27c616	0.6553663
14	0xbf2b6486	-0.6695026
15	0x3e160e34	0.14653856
16	0x3f282e62	0.65695775
17	0xbedca6d0	-0.43096018
18	0xbeba3c93	-0.3637434
19	0xbf05f7ed	-0.5233143
20	0x3ef3c065	0.47607723
21	0x3edb4910	0.4282918
22	0x3f2eda82	0.68302166
23	0xbf776edc	-0.96653533
24	0xbf2c23c0	-0.6724205
25	0xbf2a18a0	-0.66443825
26	0xbfc1dede	-1.5146139
27	0xbf213d8e	-0.6298455
28	0xbf600556	-0.8750814
29	0xbf6c4357	-0.9229025
30	0x3f4a50a0	0.79029274
31	0x3eadfa01	0.339798

sequential_1/dense_1/Cast/ReadVariableOp:0 f4 [64, 32]
0	0xbc1452d3	-0.00905295
1	0x3f06ee2e	0.52707183
2	0xbf1ace31	-0.60470873
3	0x3f27c28f	0.6553125
4	0x3f22cba2	0.6359197
5	0xbe758ca8	-0.23979437
6	0x3ef7b072	0.48376805
7	0xbd8dad65	-0.06917838
8	0xbe01be3b	-0.12670223
9	0x3f23d11e	0.6399096
10	0xbf18ccdd	-0.59687597
11	0xbef49455	-0.47769418
12	0x3da6f810	0.08152783
13	0x3f26ae42	0.65109646
14	0xbf2ab337	-0.6667971
15	0x3e5ec9b2	0.21756628
16	0x3ece1301	0.40248874
17	0xbe3ca3ad	-0.18421812
18	0xbf04ba7f	-0.5184707
19	0xbe6953b1	-0.22785832
20	0x3f0b7bab	0.5448558
21	0x3ed67e5e	0.41893286
22	0x3e513d41	0.20433523
23	0xbf0c425e	-0.5478877
24	0xbf2cb855	-0.6746877
25	0xbe9b5e2b	-0.30345282
26	0xbedcebeb	-0.4314874
27	0xbea6d354	-0.32583106
28	0xbf24e94e	-0.64418495
29	0xbe9cb190	-0.3060422
30	0x3f184570	0.59480953
31	0xbe08ad88	-0.13347447
32	0xbe5c5ab6	-0.21518978
33	0xbdd93f2d	-0.10607753
34	0xbcf2c56a	-0.02963515
35	0x3cd2a3f9	0.025712954
36	0x3df1e82b	0.11811861
37	0x3e4daba0	0.20085001
38	0xbd540d93	-0.051770758
39	0x3d8e3e85	0.069455184
40	0xbe1498c2	-0.14511397
41	0x3d51f9ec	0.051263735
42	0x3cdff19d	0.02733689
43	0xbe3606f6	-0.17776093
44	0xbe2537f0	-0.1613462
45	0x3d838298	0.06421393
46	0xbdda42d4	-0.10657278
47	0xbe4ad944	-0.19809443
48	0xbdef9c5a	-0.116997436
49	0xbe75c7d6	-0.24002013
50	0xbe6e8210	-0.23291802
51	0xbe731c01	-0.23741151
52	0x3e62029f	0.22071312
53	0xbe5b222a	-0.21399751
54	0xbe58f3f4	-0.2118681
55	0x3d912fa8	0.07089168
56	0xbc020a17	-0.007936976
57	0xbe33f988	-0.17575657
58	0x3c4893ba	0.012242252
59	0x3d747e73	0.059690904
60	0xbe0f179e	-0.13973853
61	0x3e3b3419	0.18281592
62	0xbe775eb5	-0.24157222
63	0xbd5b6dca	-0.0535715
64	0x3d788e1b	0.060682397
65	0xbdf15c1f	-0.11785149
66	0x3ed76979	0.42072657
67	0xbb85c873	-0.0040827333
68	0xbed7642e	-0.4206862
69	0x3d2ff7b0	0.042960823
70	0xbecd7ebc	-0.40135753
71	0x3e36a48d	0.17836209
72	0xbe5379aa	-0.2065188
73	0x3d2ba490	0.041904986
74	0x3e0ee473	0.13954334
75	0x3eb8214f	0.35962912
76	0xbba06f80	-0.0048961043
77	0xbe5a899b	-0.21341555
78	0x3e3b54a2	0.18294004
79	0x3e2dd595	0.16976006
80	0xbb9f9508	-0.004870061
81	0x3d5d2503	0.053990375
82	0x3ef100dd	0.4707097
83	0x3d3fe0f5	0.046845395
84	0xbec15b86	-0.3776514
85	0xbe131059	-0.14361705
86	0xbe96b558	-0.2943523
87	0x3e935102	0.28772742
88	0x3ecec365	0.4038345
89	0x3e7da697	0.2477058
90	0x3e329b94	0.17442161
91	0x3e51f187	0.20502292
92	0x3e684537	0.22682653
93	0x3e61a396	0.2203506
94	0xbed3c5b9	-0.41361788
95	0xbe02a3e5	-0.12757833
96	0x3cf59bed	0.029981578
97	0x3f07f79c	0.53112197
98	0xbf010a4a	-0.50406325
99	0x3dabc552	0.08387245
100	0x3f02f673	0.511573
101	0x3e5c1e28	0.21495879
102	0x3e67eca7	0.2264887
103	0xbd2d5ce6	-0.042324923
104	0xbcb6bdc9	-0.022307293
105	0x3ef95149	0.48694828
106	0xbedf022c	-0.43556345
107	0xbdc2c384	-0.09509948
108	0x3defc2a0	0.11707044
109	0x3e59c42f	0.21266244
110	0xbeffbe2d	-0.4994978
111	0xbe1c74a5	-0.15278871
112	0x3ecc2dd7	0.39878723
113	0xbe8f1a68	-0.27949834
114	0xbe8f58ba	-0.2799738
115	0xbd26b97d	-0.04070424
116	0x3dd86006	0.1056519
117	0x3ed82a50	0.42219782
118	0x3ee040ef	0.4379954
119	0xbe3f0fbf	-0.1865835
120	0xbeca57da	-0.3952015
121	0xbe8c8465	-0.2744476
122	0xbed77f90	-0.4208951
123	0xbd163378	-0.03667018
124	0xbeee56d2	-0.46550614
125	0x3e246293	0.16053228
126	0x3efc07c3	0.49224672
127	0x3e115155	0.14191182
128	0xbe555741	-0.20834066
129	0xbe2a403f	-0.1662607
130	0x3e6af34a	0.2294437
131	0xbeaf7ba1	-0.3427401
132	0xbeb577bb	-0.3544291
133	0xbdcd67f0	-0.1002959
134	0xbe6ad03b	-0.22930996
135	0xbe30dfba	-0.17272845
136	0x3e45e621	0.19326068
137	0xbede4dd7	-0.43418762
138	0x3e6e5f8f	0.2327864
139	0x3e0cbc3e	0.13743684
140	0x3e3caa04	0.18424231
141	0xbee3d92b	-0.44501624
142	0x3e8fe9cb	0.28108057
143	0x3c853221	0.016259255
144	0xbeb57fcc	-0.35449064
145	0x3dd6b690	0.1048404
146	0x3f032f82	0.51244366
147	0x3e6c14a7	0.23054753
148	0x3cd5aaad	0.026082361
149	0xbe5c0088	-0.21484578
150	0xbeea8912	-0.458077
151	0x3e716a0e	0.23575613
152	0x3e1cc8a7	0.15310918
153	0x3e216599	0.15761413
154	0x3e936ff1	0.28796342
155	0x3e2aa750	0.16665387
156	0x3e4574dd	0.19282861
157	0x3e8a3cea	0.269996
158	0xbe024dc0	-0.12724972
159	0xbe05569f	-0.13021325
160	0x3e438328	0.19093001
161	0x3d788a21	0.060678605
162	0x3d62252d	0.055211235
163	0xbe49c04f	-0.19702266
164	0xbe3074c3	-0.17232041
165	0xbe62f2b8	-0.22162902
166	0xbddf4ddf	-0.109035246
167	0xbcb87813	-0.022518193
168	0x3e1831f0	0.148628
169	0xbd180bb3	-0.037120532
170	0xbdaba846	-0.08381705
171	0x3e35ada9	0.17742027
172	0x3d610610	0.054937422
173	0x3db7ffae	0.08984314
174	0x3e44c53f	0.19215868
175	0x3e4ba9e0	0.19889021
176	0xbd8854a9	-0.06656773
177	0xbe357394	-0.17719871
178	0xbe3a8635	-0.18215258
179	0xbd8915ef	-0.066936366
180	0x3da45c59	0.080254264
181	0xbe033423	-0.12812857
182	0x3e42bc52	0.19017151
183	0xbd3115c3	-0.043233644
184	0xbdf08675	-0.11744396
185	0x3e4f242a	0.20228639
186	0xbdf8971e	-0.12138198
187	0xbdd6c31b	-0.10486432
188	0x3dff608e	0.12469588
189	0xbe1af31f	-0.15131806
190	0x3e85e627	0.26152155
191	0xbd32e712	-0.043677397
192	0x3d908f0d	0.07058535
193	0xbe004d7a	-0.12529555
194	0xbe2bb55a	-0.16768399
195	0x3e43f00c	0.1913454
196	0x3dafabf4	0.08577719
197	0xbe1de1b0	-0.15418124
198	0x3e162637	0.14663015
199	0x3e01263d	0.12612243
200	0xbe1343f6	-0.14381394
201	0xbe01b9aa	-0.12668481
202	0xbf1b3194	-0.60622525
203	0xbe325ad3	-0.17417459
204	0xbd982c10	-0.07430279
205	0x3c6be43e	0.014397679
206	0xbdd4a4fd	-0.103830315
207	0xbe38cf9c	-0.18047947
208	0x3d6c69f8	0.057718247
209	0xbd42f6d6	-0.047598682
210	0xbe4996f4	-0.1968649
211	0xbdd44c0b	-0.103660665
212	0x3c4958ae	0.012289209
213	0x3e8f6336	0.2800538
214	0xbd115022	-0.03547681
215	0xbe4547ea	-0.19265714
216	0x3db8acae	0.09017311
217	0x3e0e7f20	0.13915682
218	0xbedf79fe	-0.4364776
219	0xbe541c91	-0.20714022
220	0xbdd16dbb	-0.102260076
221	0x3e33ca29	0.17557587
222	0xbe0173b5	-0.12641795
223	0x3e3ede11	0.18639399
224	0x3e56420a	0.2092363
225	0xbe7367e9	-0.23770107
226	0x3e107c35	0.14109881
227	0x3c81b031	0.015831085
228	0x3dcd300c	0.1001893
229	0xbe1cbba4	-0.15305954
230	0xbdb52bda	-0.08846255
231	0x39d79c8d	0.00041124635
232	0x3e62443c	0.22096342
233	0xbbaa4244	-0.0051958878
234	0xbeda5933	-0.4264618
235	0xbd522891	-0.05130822
236	0xbe028c40	-0.12748814
237	0x3d6ff859	0.058586452
238	0x3e460fa8	0.1934191
239	0x3d9b99f9	0.07597727
240	0x3e2c0820	0.16799974
241	0xbe11e0bd	-0.14245887
242	0x3e2488d3	0.1606782
243	0x3e3ff208	0.18744671
244	0x3dd06965	0.101763524
245	0xbe0d2225	-0.13782556
246	0xbc3223c9	-0.01087279
247	0xbea77fad	-0.32714596
248	0x3e81088f	0.25201842
249	0x3e7db497	0.24775921
250	0xbf03f520	-0.51545906
251	0x3b05c751	0.0020412991
252	0x3dbc1778	0.09184164
253	0x3ef608d0	0.48053598
254	0xbe8de876	-0.27716416
255	0x3bbc7f34	0.0057524685

sequential_1/dense_1/BiasAdd/ReadVariableOp:0 f4 [32]
0	0xbcac7a98	-0.021054551
1	0x3d4791ce	0.048723035
2	0xbc913dbb	-0.01772963
3	0x3dcc7ece	0.099851236
4	0x3da3883d	0.0798497
5	0x00000000	0.0
6	0x3dca02fb	0.0986385
7	0xbbc47184	-0.0059949774
8	0xbd018a62	-0.031626113
9	0x3d9f1d5e	0.07769273
10	0x3e88d3d1	0.26724103
11	0xbd76e662	-0.060278304
12	0x00000000	0.0
13	0x3d9abe1c	0.07555792
14	0xbd0d247d	-0.034458626
15	0xbd0201f2	-0.031740136
16	0x3d4b15fd	0.049581517
17	0x3ca72920	0.020405352
18	0xbccc4971	-0.024937363
19	0xbba0fd80	-0.004913032
20	0x3dc71346	0.09720473
21	0x3dc34564	0.095347196
22	0x3d8f0ab9	0.06984467
23	0x3bde6bd8	0.0067877583
24	0xbbc21d8a	-0.0059239315
25	0xbd266fa1	-0.0406338
26	0x3de5dc25	0.1122363
27	0xbd2de42f	-0.04245394
28	0x3d07c70e	0.033148818
29	0xbe1d7536	-0.15376744
30	0x3d8ae165	0.06781272
31	0xbbc4c540	-0.0060049593

sequential_1/conv1d_2_1/convolution/ExpandDims_1:0 f4 [64, 64, 1, 5]
0	0xbe0e3f8e	-0.13891432
1	0xbe5dcc6f	-0.21660016
2	0xbe4a2673	-0.1974123
3	0xbdbf0527	-0.093271546
4	0xbd874456	-0.06604831
5	0xbeb4fdd7	-0.35349914
6	0xbe98f845	-0.29876915
7	0xbe392755	-0.1808141
8	0xbe6b9840	-0.23007298
9	0xbea05151	-0.3131204
10	0x3e1a19c4	0.15048891
11	0x3e71d956	0.23618063
12	0x3dd41d9f	0.10357212
13	0x3dbe7e1e	0.09301399
14	0x3db82ea7	0.08993273
15	0xbe86b311	-0.26308492
16	0xbe815024	-0.25256455
17	0xbed0e93c	-0.40802944
18	0xbe962970	-0.2932849
19	0xbec31eca	-0.38109428
20	0xbd9e5d6f	-0.07732665
21	0x3cc15987	0.02360226
22	0xbc6e29fd	-0.014536378
23	0x3d95a753	0.07307305
24	0x3d4ec527	0.050480988
25	0x3bff6a9a	0.0077946903
26	0xbcdb705e	-0.02678698
27	0xbdf6d041	-0.1205144
28	0x3d5f46eb	0.054510992
29	0x3c8be099	0.01707487
30	0xbd115b0c	-0.03548722
31	0xbe0443d0	-0.12916493
32	0xbc979237	-0.018502338
33	0x3d3568d3	0.04428942
34	0x3d6e84ff	0.058232304
35	0x3dab6445	0.08368734
36	0x3d1c99ba	0.038232543
37	0xbc409730	-0.011754796
38	0x3c9766d7	0.018481655
39	0x3bcc2e9d	0.0062311427
40	0x3e3ecd2b	0.18632953
41	0x3dd77baf	0.10521638
42	0x3dd02e89	0.10165126
43	0x3e83a7d7	0.2571399
44	0x3e5784cf	0.21046756
45	0x3dc24548	0.094858706
46	0x3c074836	0.0082569625
47	0x3d4c2ab0	0.049845397
48	0x3dcb3a15	0.09923188
49	0x3da323b3	0.079657935
50	0xbdf6a1aa	-0.12042554
51	0xbe9c7168	-0.30555272
52	0xbea3b813	-0.31976375
53	0xbe0213fa	-0.12702933
54	0xbe222597	-0.15834652
55	0x3cb048cc	0.021519087
56	0xbda4aab2	-0.0804037
57	0xbdfdfd0f	-0.12401783
58	0xbd97df74	-0.07415667
59	0xbdf9cdbf	-0.12197446
60	0x3bcdf4e6	0.0062852977
61	0xbc0ac3cd	-0.008469534
62	0xbc668f41	-0.01407224
63	0xbcc68775	-0.024234513
64	0x3ddee4a8	0.108834565
65	0x3e490ce1	0.19633819
66	0x3e569ba7	0.20957814
67	0x3e1e3668	0.15450442
68	0x3e8d84b9	0.27640322
69	0x3e8bf8f4	0.27338374
70	0xbe208fbf	-0.15679835
71	0xbdcb1b80	-0.099173546
72	0xbddceb3c	-0.10787055
73	0xbe1b9dc9	-0.15196909
74	0xbe2e4ef6	-0.17022309
75	0x3e884664	0.26616204
76	0x3e732175	0.23743232
77	0x3e25c2d1	0.16187598
78	0x3e224c11	0.1584933
79	0x3e970bbe	0.29501146
80	0xbeb01d57	-0.34397385
81	0xbe6e1100	-0.23248672
82	0xbeaf6e46	-0.3426382
83	0xbec02a1b	-0.37532124
84	0xbe9801f0	-0.29688978
85	0xbe542669	-0.20717777
86	0xbe72747d	-0.23677249
87	0xbe193b5a	-0.14964047
88	0xbe4425c7	-0.19155036
89	0xbe41a5ce	-0.18910906
90	0x3d09ab8b	0.03361086
91	0x3b00a965	0.0019632217
92	0xbd0855c3	-0.033284914
93	0xbda0ae79	-0.07845778
94	0xbd6050dd	-0.054764617
95	0xbe3c02c0	-0.18360424
96	0xbe601803	-0.2188416
97	0xbdceded6	-0.10101096
98	0xbdfda812	-0.123855725
99	0xbe4e0975	-0.20120795
100	0xbe8b6a8c	-0.27229726
101	0xbe99e703	-0.3005906
102	0xbeb83d63	-0.35984334
103	0xbe8c5c0f	-0.27413985
104	0xbea5a70a	-0.32354003
105	0x3cfdef0d	0.030997777
106	0x3d7da777	0.061927285
107	0xbd64a936	-0.055825435
108	0x3d7a1161	0.06105173
109	0xbd719b75	-0.058986146
110	0xbe9b218a	-0.30299026
111	0xbea3aa24	-0.31965744
112	0xbe910399	-0.28323057
113	0xbea9d851	-0.3317285
114	0xbec0d3b5	-0.3766152
115	0xbe63a9c2	-0.22232726
116	0xbebe50a4	-0.371709
117	0xbec3060f	-0.3809056
118	0xbe8822e9	-0.26589134
119	0xbecc4deb	-0.39903197
120	0xbda5e8b5	-0.08101026
121	0xbc3c1d38	-0.011481576
122	0xbbf4d653	-0.0074718385
123	0xbd40f4fa	-0.047108628
124	0xbc12faa2	-0.008970888
125	0xbed96579	-0.4246023
126	0xbe9d366b	-0.3070558
127	0xbecea465	-0.40359798
128	0xbebcbb1f	-0.36861512
129	0xbe8c6702	-0.2742234
130	0x3e013495	0.12617715
131	0x3e2b5eca	0.16735378
132	0x3dd149c0	0.10219145
133	0x3dbabe1c	0.09118292
134	0x3e227b7e	0.15867421
135	0x3e105406	0.14094552
136	0x3e2889fe	0.1645889
137	0x3e62fde9	0.22167172
138	0x3d886ec1	0.0666175
139	0x3e71c8b2	0.23611715
140	0x3ceeef06	0.02916671
141	0x3cf40e5a	0.029792
142	0x3c4c6ac2	0.012476625
143	0x3ca4a375	0.020097474
144	0xbd3c15a8	-0.04591909
145	0x3eb6ba7a	0.35689145
146	0x3e750316	0.23926958
147	0x3e60c1cb	0.21948926
148	0x3e9edb81	0.31026843
149	0x3e317f02	0.17333606
150	0x3d96b157	0.07358044
151	0xbd174539	-0.03693125
152	0x3dda06d7	0.10645836
153	0x3d977050	0.07394469
154	0x3d805cfc	0.06267735
155	0x3df274cb	0.11838683
156	0xbb0e58fa	-0.0021720515
157	0x3d86aed9	0.06576318
158	0x3c754c50	0.014971808
159	0x3cb19e3f	0.021681903
160	0x3e383b2c	0.17991322
161	0x3e88fcfc	0.26755512
162	0x3e268290	0.16260743
163	0x3e663606	0.22481546
164	0x3dfccdfb	0.12343975
165	0xbe9da802	-0.30792242
166	0xbe37013e	-0.17871568
167	0xbe49bbf8	-0.1970061
168	0xbe94e01d	-0.29077235
169	0xbdad4a8c	-0.08461484
170	0xbe61c85f	-0.22049092
171	0xbe32c50a	-0.17457977
172	0xbe8b55ac	-0.272138
173	0xbe80ef77	-0.25182697
174	0xbe8a53e4	-0.27017128
175	0xbe5ff3b4	-0.21870309
176	0xbe23d059	-0.15997447
177	0xbd2185d6	-0.039434277
178	0xbe30d4b9	-0.17268647
179	0xbd88b59a	-0.06675263
180	0x3e528845	0.20559795
181	0x3e3be557	0.18349205
182	0x3e0a38e7	0.13498269
183	0x3e396758	0.18105829
184	0x3e2a86a6	0.16652927
185	0xbca748c1	-0.020420434
186	0xbc40c0fa	-0.011764759
187	0x3d018d18	0.031628698
188	0x3d21c3eb	0.039493483
189	0x3dd180b0	0.10229623
190	0x3e55ba3b	0.20871823
191	0x3e9fd63d	0.31218138
192	0x3e1a9059	0.15094127
193	0x3e8e027c	0.2773627
194	0x3e2977c2	0.1654959
195	0xbe6d027a	-0.23145476
196	0xbe3e04e2	-0.1855655
197	0xbe121563	-0.14265971
198	0xbe819e77	-0.25316212
199	0xbe53b22c	-0.20673436
200	0x3dc60273	0.09668436
201	0xbbdc8113	-0.006729254
202	0x3d6dfe24	0.058103696
203	0xbe389166	-0.18024215
204	0xbe04947e	-0.1294727
205	0xbe8f6658	-0.2800777
206	0xbe89dce3	-0.26926336
207	0xbecbc439	-0.39798144
208	0xbea4824d	-0.32130662
209	0xbe7560de	-0.23962733
210	0xbb4d73f5	-0.0031349633
211	0x3c2fef80	0.010738254
212	0xbd046a36	-0.032327853
213	0xbd57e2f1	-0.052706663
214	0xbd0d5565	-0.034505267
215	0xbe207dc5	-0.15672977
216	0xbd9313d8	-0.07181519
217	0xbd9a9545	-0.07548002
218	0xbd83a7f1	-0.06428517
219	0xbd385034	-0.044998363
220	0xbe3b6251	-0.18299223
221	0xbe4ed8e5	-0.20199926
222	0xbe3f81c5	-0.18701847
223	0xbe9b95a0	-0.30387592
224	0xbe79aad5	-0.24381573
225	0x3e1cfa9e	0.15329978
226	0x3dd635e6	0.10459499
227	0xbddadd98	-0.10686797
228	0x3cd30e0a	0.02576353
229	0x3d320963	0.043465983
230	0x3cecf5ff	0.028925894
231	0x3bc2f19e	0.005949213
232	0x3cd5ffba	0.026122916
233	0x3e0c8553	0.13722734
234	0x3d871fd4	0.065978676
235	0xbdd3b217	-0.10336702
236	0xbd9285b9	-0.07154412
237	0xbc906c3e	-0.017629739
238	0x3c11c4da	0.008897031
239	0xbcf04fb6	-0.029334884
240	0xbe93fbc0	-0.28903008
241	0xbdd7f636	-0.10545008
242	0xbe916fe8	-0.2840569
243	0xbe92f994	-0.28706038
244	0xbe3fa848	-0.18716538
245	0xbe68d913	-0.22739057
246	0xbe9f7815	-0.31146303
247	0xbe4a3da5	-0.19750078
248	0xbea4beb4	-0.32176745
249	0xbe8e174c	-0.2775215
250	0xbe546abb	-0.2074384
251	0xbec3c69b	-0.3823746
252	0xbead8738	-0.33892226
253	0xbe8fcbbd	-0.28085127
254	0xbe6975ce	-0.22798845
255	0xbdad092a	-0.084490135

sequential_1/conv1d_1_2/convolution/ExpandDims_1:0 f4 [64, 32, 1, 9]
0	0xbd2536ed	-0.040335584
1	0x3d1cc046	0.038269304
2	0x3d3e0581	0.046391968
3	0xbd8f706f	-0.07003867
4	0x3d24285b	0.04007755
5	0x3d355047	0.04426601
6	0xbdc18388	-0.09448916
7	0x3d31f66e	0.043447904
8	0x3cf03d72	0.029326174
9	0xbd1bb0f6	-0.03801056
10	0x3d6777cf	0.056510743
11	0x3d9e3acf	0.077260606
12	0x3b6b7fff	0.0035934446
13	0xbc7037e4	-0.014661763
14	0xbdb541ac	-0.088504165
15	0xbe00f7d1	-0.12594534
16	0xbdc6f6f7	-0.097150736
17	0x3dafe778	0.08589071
18	0xbda17a46	-0.0788465
19	0x3d879725	0.066206254
20	0x3d48c9af	0.049020465
21	0x3dabc91a	0.083879665
22	0xbd062fbb	-0.032760363
23	0xbe025340	-0.1272707
24	0x3cc6e9dc	0.024281435
25	0xbd672b06	-0.056437515
26	0xba88fa94	-0.0010450655
27	0x3dafbb99	0.08580703
28	0xbc5a710a	-0.013332615
29	0x3e161437	0.14656149
30	0xbc42ea29	-0.011896648
31	0xbd734171	-0.05938858
32	0x3d745b47	0.05965736
33	0xbd4d21ce	-0.050081067
34	0x3dc0acd1	0.09407962
35	0xbd394f73	-0.045241784
36	0xbd9a1cfa	-0.07525058
37	0x3c55be8e	0.01304592
38	0x3db311da	0.08743639
39	0x3d1c916f	0.038224634
40	0xbd39563c	-0.045248255
41	0xbd3e5e96	-0.046476923
42	0x3d3cd397	0.046100225
43	0xbd9059e6	-0.07048397
44	0x3c2bb636	0.010480454
45	0xbd408436	-0.047001086
46	0xbe63ed10	-0.22258401
47	0xbd7fb386	-0.062427066
48	0xbb31d427	-0.002713451
49	0xbdfdd487	-0.12394052
50	0xbe6080a2	-0.2192407
51	0xbda486b4	-0.08033505
52	0xbcffbcc0	-0.031217933
53	0xbd7563ae	-0.059909515
54	0xbda940b3	-0.082642935
55	0xbdb190d3	-0.08670201
56	0xbcc24f11	-0.023719342
57	0xbd8eff2e	-0.069822654
58	0xbc21bea6	-0.009872114
59	0xbd29a953	-0.041421246
60	0xbd420a6f	-0.04737323
61	0xbdc1fc50	-0.09471953
62	0xbdc636ba	-0.09678407
63	0x3d76f2c0	0.0602901
64	0xbe132c4a	-0.14372364
65	0x3d66cfd6	0.05635055
66	0xbd5dbc10	-0.05413443
67	0xbdce72b5	-0.100804724
68	0xbddacdac	-0.1068376
69	0xbdb8701d	-0.09005759
70	0x3da6b159	0.08139295
71	0xbc8faaee	-0.01753756
72	0x3e1f4adc	0.155559
73	0xbda0cf30	-0.07852018
74	0xba23058b	-0.00062187825
75	0x3c4f9f89	0.0126723135
76	0x3ce265bb	0.0276364
77	0xbcedb1e9	-0.029015498
78	0x3c399255	0.011326392
79	0x3dbcd743	0.092207454
80	0xbca9b819	-0.020717667
81	0x3c725e01	0.01479292
82	0xbd4fcd4c	-0.050732896
83	0xbcef5fac	-0.029220425
84	0xbdc5efdc	-0.0966489
85	0x3ccf83b2	0.025331352
86	0xbd070513	-0.032963824
87	0xbdc5f47f	-0.096657746
88	0xbc96d776	-0.018413287
89	0x3b85a92d	0.004079005
90	0xbd1ea9f4	-0.0387363
91	0xbb5a882c	-0.0033345325
92	0xbe1b570b	-0.15169923
93	0xbbd49b97	-0.0064882743
94	0xbcee1e27	-0.029067112
95	0xbe2048b1	-0.1565273
96	0xbc27c250	-0.010239199
97	0xbdd2587c	-0.10270783
98	0x3b9327e1	0.004490838
99	0x3c9a7260	0.018853366
100	0x3d2f8c98	0.04285869
101	0x3d0fe077	0.035126176
102	0xbcea2f39	-0.02858697
103	0xbe442cb6	-0.19157681
104	0xbc53cbf4	-0.012927044
105	0xbe8bf2a0	-0.27333546
106	0xbd58b416	-0.05290612
107	0x3dd559ca	0.104175165
108	0xbd8a2acd	-0.06746445
109	0xbd6eeb0f	-0.058329638
110	0x3dc23174	0.09482089
111	0x3cd1691f	0.025562821
112	0x3abfe385	0.001463995
113	0x3bd5e6db	0.0065277643
114	0xbdf4a674	-0.11945811
115	0xbcafc1cd	-0.021454716
116	0x3ca96a5d	0.0206806
117	0x3d448bf4	0.047985032
118	0xbb276352	-0.0025541377
119	0xbd84534d	-0.06461201
120	0x3dafb185	0.08578781
121	0xbe4aa689	-0.1979009
122	0xbd223b4e	-0.03960734
123	0xbe315f19	-0.17321433
124	0x3d30f1f2	0.043199487
125	0x3a24f8d2	0.00062931806
126	0xbe0fbe8d	-0.14037533
127	0xbd2524a8	-0.04031816
128	0xbe04f664	-0.12984616
129	0xbe3c9715	-0.18417008
130	0xbe2d903f	-0.16949557
131	0xbd9e5792	-0.077315465
132	0xbd9226ad	-0.07136283
133	0xbe01481f	-0.12625168
134	0xbdd0b1c5	-0.10190157
135	0x3d349947	0.04409149
136	0xbdca1b90	-0.098685384
137	0x3dba77ce	0.09104882
138	0xbdc844ff	-0.09778785
139	0xbde35caa	-0.11101659
140	0x3cb82d9d	0.022482688
141	0xbdaa835c	-0.08325836
142	0xbd0e9502	-0.034810074
143	0xbd5bf83f	-0.053703543
144	0x3b1c97e4	0.0023894245
145	0x3c8e0c13	0.017339742
146	0x3d231332	0.039813228
147	0x3ca385a3	0.019961184
148	0xbe2f1a97	-0.17099987
149	0xbe17b27f	-0.14814185
150	0xbe787d97	-0.24266659
151	0x3cf6a6f4	0.030108906
152	0x3c041fe8	0.008064248
153	0x3d937fe2	0.07202126
154	0x3b297633	0.0025857806
155	0x3dcb0759	0.09913511
156	0xbe013305	-0.12617119
157	0xbdd8e423	-0.105903886
158	0x3bb80d3f	0.0056168134
159	0xbd3190fa	-0.04335115
160	0x3d1aab9e	0.037761323
161	0xbd7e6896	-0.06211146
162	0xbd660456	-0.05615648
163	0xbcace2aa	-0.021104176
164	0x3bfa7409	0.007643227
165	0xbdbe64c2	-0.09296562
166	0xbe5e4402	-0.2170563
167	0xbe8c6374	-0.27419627
168	0xbcbd5ca5	-0.023115465
169	0x3daa0628	0.083019555
170	0x3d33f695	0.04393633
171	0xbd3a9516	-0.045552336
172	0xbb38fbef	-0.0028226336
173	0x3bb67310	0.0055679157
174	0x3b56c7ce	0.0032772901
175	0x3990eca0	0.0002764212
176	0xbd3af8e2	-0.04564751
177	0x3e1043aa	0.14088312
178	0xbd8eb9cc	-0.06969032
179	0xbba547da	-0.0050439658
180	0xbd8eabed	-0.06966386
181	0x3e01c7cd	0.12673874
182	0xbc1b1ea9	-0.009467759
183	0x3bed3c71	0.007239871
184	0xbd47e28b	-0.048800033
185	0xbe0becff	-0.13664626
186	0xbd990151	-0.07470954
187	0xbdcf4363	-0.10120275
188	0x3dab35d0	0.08359873
189	0x3e12bb87	0.14329349
190	0xbe221021	-0.15826465
191	0xbb9578b2	-0.004561507
192	0xbd9bb009	-0.076019354
193	0xbdbaf0c2	-0.09127952
194	0xbd34cf72	-0.044143148
195	0xbe8b4c9d	-0.2720689
196	0x3cf72a2b	0.030171474
197	0xbd2aa93b	-0.041665297
198	0x3bdeab86	0.0067953495
199	0xbe01e80b	-0.12686174
200	0xbd360d7b	-0.04444645
201	0xbdacad16	-0.08431451
202	0xbd9fe1a8	-0.078067124
203	0xbdfee1ae	-0.12445389
204	0x3da97f69	0.08276255
205	0xbd657055	-0.05601533
206	0xbd182c6f	-0.03715175
207	0xbdf7ae32	-0.12093772
208	0xbdb03455	-0.086037315
209	0xbd9b4f73	-0.07583513
210	0x3ccccab9	0.02499901
211	0xbe01bed6	-0.12670454
212	0xbdf39080	-0.118927956
213	0x3d85dbd4	0.065360695
214	0xbda58401	-0.08081818
215	0xbc9178aa	-0.017757732
216	0xbde9bd8c	-0.11413106
217	0x3d26f39f	0.04075968
218	0xbdd297d9	-0.10282869
219	0x3ddc83d9	0.107673354
220	0xbe248e2d	-0.16069861
221	0xbd192c0d	-0.037395526
222	0x3d24e998	0.040261835
223	0xbd282b0b	-0.041056674
224	0xbd8141f2	-0.06311406
225	0xbd155599	-0.036458585
226	0xbcf5c513	-0.030001199
227	0x3c8e1872	0.01734564
228	0xbc4d9b60	-0.012549251
229	0xbccf1e5b	-0.02528303
230	0xbdca8a43	-0.098896526
231	0x3ca01459	0.019540953
232	0xbd98ed43	-0.07467129
233	0x3d97b10b	0.07406815
234	0x3d417ab3	0.047236156
235	0x3d7f7593	0.062367987
236	0x3e133272	0.14374712
237	0xbbfd28ca	-0.0077258097
238	0xbdd9b420	-0.10630059
239	0x3cf48f41	0.029853465
240	0x3c787906	0.015165573
241	0x3e049dde	0.12950847
242	0xbd43110b	-0.047623675
243	0x3d82089e	0.063493
244	0x3d00b9bd	0.031427134
245	0xbdff7148	-0.124727786
246	0x3d26c159	0.040711734
247	0xbd4676be	-0.048453085
248	0xbdd7ffdb	-0.105468474
249	0x3d46f313	0.048571657
250	0x3d4b3010	0.049606383
251	0x3cdf55f5	0.027262667
252	0x3cce9feb	0.02522274
253	0xbd1f053a	-0.038823344
254	0xbc2e4743	-0.010637107
255	0xbcdcc5bd	-0.026949758

sequential_1/conv1d_1/convolution/ExpandDims_1:0 f4 [32, 1, 1, 21]
0	0x3dcb505c	0.09927437
1	0x3e2fb038	0.17157066
2	0x3dd36907	0.10322767
3	0x3d8036be	0.06260441
4	0x3d7b358f	0.061330374
5	0xbe400b03	-0.187542
6	0x3c92a87e	0.017902609
7	0xbbd74f1e	-0.006570711
8	0x3dc26d65	0.094935216
9	0xbca166b8	-0.0197023
10	0xbe11fcd5	-0.14256604
11	0x3d604128	0.054749638
12	0xbcaee407	-0.021348966
13	0x3e145fd4	0.1448968
14	0x3e011b72	0.12608126
15	0x3e410883	0.18850903
16	0xbb3412dd	-0.0027477064
17	0x3d79edd9	0.061017845
18	0xbdf32c52	-0.11873688
19	0xbe0c57dc	-0.1370539
20	0x3d941a0c	0.072315305
21	0xbdd853c4	-0.10562852
22	0xbe1f5845	-0.15561016
23	0xbe476838	-0.1947335
24	0xbe3da70f	-0.18520759
25	0xbe2b74a4	-0.16743714
26	0x3d496a1e	0.049173467
27	0x3d67edad	0.05662315
28	0x3d586fbe	0.05284094
29	0x3e1e9083	0.15484814
30	0x3dfaf755	0.12254206
31	0x3e0eaef3	0.13933925
32	0x3d6f0338	0.05835268
33	0x3b8cff06	0.004302862
34	0x3dddfd36	0.10839312
35	0x3e07cf71	0.13262726
36	0x3df13f66	0.117796704
37	0xbcab0c86	-0.020879995
38	0x3dc8ade8	0.09798795
39	0x3ccfe97a	0.025379885
40	0x3e2a9c40	0.16661167
41	0x3e18b5ee	0.1491315
42	0xbebde67d	-0.3708991
43	0xbe61fae8	-0.2206837
44	0xbcc37d3a	-0.023863424
45	0x3e03c3b9	0.12867631
46	0x3d2399a7	0.039941456
47	0x3e907371	0.28213075
48	0x3d5d4b70	0.05402702
49	0xbdfaed9c	-0.12252352
50	0xbe3bf726	-0.18355998
51	0xbd13465a	-0.035955764
52	0x3d814917	0.06312769
53	0x3da406d1	0.080091126
54	0x3e0b7624	0.13619286
55	0xbcf32585	-0.029680977
56	0x3cf9c187	0.030487789
57	0xbda3677a	-0.07978721
58	0x3cdc33a7	0.026880099
59	0xbe03e435	-0.12880023
60	0xbd95b2af	-0.07309472
61	0xbd9d987e	-0.07695101
62	0xbe0d5958	-0.13803613
63	0xbe01c7d2	-0.12673882
64	0x3e602e35	0.21892627
65	0x3d2eace5	0.042645354
66	0xbddfd33b	-0.10928961
67	0x3e3f9224	0.18708092
68	0x3d3165a9	0.04330984
69	0x3c31ef90	0.010860339
70	0x3cd33a1c	0.025784545
71	0xbde0a19f	-0.10968327
72	0x3d21dc3c	0.039516672
73	0x3da27de6	0.079341695
74	0x3c747861	0.014921279
75	0xbe17b8ac	-0.1481654
76	0xbda49c23	-0.08037593
77	0x3e28d9a4	0.16489273
78	0xbd1ff2a7	-0.03904977
79	0x3ba8b4ad	0.0051484914
80	0xbb89be0f	-0.004203565
81	0x3e3a47ca	0.18191448
82	0x3e035d10	0.1282847
83	0x3e0c7e9d	0.13720174
84	0xbe964fb0	-0.29357672
85	0xbe40afc3	-0.18817048
86	0x3ab50d46	0.001381316
87	0x3e182275	0.14856894
88	0x3dfdedd4	0.12398878
89	0x3de3223b	0.11090513
90	0x3cff7f5c	0.03118866
91	0x3c7c6670	0.015405282
92	0xbde89584	-0.11356643
93	0xbd8cb9e8	-0.06871396
94	0xbe227464	-0.15864712
95	0xbe1fbfab	-0.1560046
96	0x3e262225	0.16223963
97	0x3e440d08	0.19145596
98	0x3e607de4	0.21923023
99	0xbc6340b2	-0.013870405
100	0xbc9920b2	-0.018692348
101	0xbe1a3c4d	-0.15062065
102	0xbe4d81ce	-0.20069048
103	0xbdbfa3f8	-0.093574464
104	0x3d6afc46	0.057369493
105	0xbe996e05	-0.2996675
106	0xbe76c9ca	-0.24100414
107	0x3cb6bdc0	0.022307277
108	0x3e4fa8fd	0.20279308
109	0x3e1e097d	0.15433307
110	0x3e3349c1	0.17508604
111	0x3e60c4ba	0.21950045
112	0x3e5bc17c	0.21460527
113	0x3d9adf90	0.075621724
114	0xbd1aae9a	-0.03776417
115	0xbe05d751	-0.13070418
116	0xbe73456f	-0.23756956
117	0xbe8b75e6	-0.27238387
118	0xbe000729	-0.12502731
119	0xbd4b3f3f	-0.049620863
120	0xbe463f83	-0.19360165
121	0x3d87ec49	0.06636865
122	0x3e12a1a1	0.14319469
123	0x3e629e6c	0.22130746
124	0x3e5e3ae9	0.2170216
125	0xbddfdbcb	-0.10930594
126	0x3d99cef5	0.07510177
127	0x3d62f0a2	0.055405267
128	0xbbebb050	-0.007192649
129	0xbe01b896	-0.1266807
130	0xbe5cf8ed	-0.21579333
131	0xbd023086	-0.031784557
132	0xbd49d7d4	-0.049278095
133	0xbe46ce1b	-0.1941456
134	0xbe4253e3	-0.18977313
135	0x3cd0b7b3	0.02547822
136	0x3e1ddc8e	0.15416166
137	0x3e1bc9e6	0.15213737
138	0xbc143b83	-0.009047392
139	0x3dec8e60	0.115505934
140	0x3d26b0be	0.0406959
141	0xbd9d21ec	-0.07672486
142	0xbd9e86a6	-0.07740526
143	0xbe527aa7	-0.205546
144	0xbe21ec49	-0.15812792
145	0xbe6a7d31	-0.22899319
146	0xbe313fbf	-0.17309473
147	0x3de27aff	0.11058616
148	0x3e1eee64	0.15520626
149	0x3de1405d	0.109986044
150	0x3d8743c3	0.066047214
151	0x3e179859	0.1480421
152	0x3e5b763a	0.21431819
153	0x3e404963	0.18777995
154	0x3c80da55	0.015729109
155	0xbd877ca0	-0.06615567
156	0x3c505796	0.012716195
157	0x3d1ddaea	0.03853885
158	0xbe1d7179	-0.15375318
159	0xbea23a2b	-0.31685004
160	0xbdd16ca5	-0.102258004
161	0x3d1c8c2f	0.038219627
162	0x3daf3b86	0.08556275
163	0xbd78179f	-0.0605694
164	0x3d742f50	0.059615433
165	0x3e4964c4	0.19667345
166	0x3e8dfe73	0.27733192
167	0x3e68ce7b	0.22735016
168	0xbc31b32d	-0.0108459415
169	0x3e09e2fb	0.13465492
170	0x3e5d466e	0.21608898
171	0x3e6383ca	0.22218242
172	0x3e75092d	0.23929282
173	0x3e899836	0.2687394
174	0x3e668a3c	0.2251367
175	0x3e298289	0.16553701
176	0x3bfc56e8	0.0077007897
177	0x3c2954db	0.0103351725
178	0xbe47ce8f	-0.1951239
179	0xbe7ae98e	-0.24503157
180	0xbe90b224	-0.2826091
181	0xbe1cf7e4	-0.15328938
182	0xbe3fb395	-0.18720849
183	0xbe107519	-0.14107169
184	0x3dd0b0cd	0.10189972
185	0x3d73a49c	0.059483156
186	0x3d36aace	0.044596486
187	0x3dd5456c	0.10413632
188	0x3e8e1ef5	0.27757993
189	0x3dd65d2d	0.104669906
190	0xbc882b61	-0.016622247
191	0xbd82ac0a	-0.0638047
192	0x3e0db8ea	0.1384007
193	0x3cdb724c	0.0267879
194	0x3dbf1c9a	0.09331627
195	0x3e07dcd1	0.13267829
196	0x3d6f7c4c	0.058468148
197	0x3ca7480e	0.0204201
198	0xbd5a1df1	-0.05325121
199	0xbd26d770	-0.0407328
200	0x3d5bd5f1	0.053670827
201	0x3dca31cd	0.0987278
202	0xbd015861	-0.031578425
203	0x3d061782	0.032737263
204	0xbd509cd2	-0.050930806
205	0xbdb615fc	-0.08890912
206	0x3ddb06f5	0.10694686
207	0x3c87c2c4	0.016572364
208	0x3dd8fc90	0.105950475
209	0x3e43ba69	0.19114079
210	0xbe7bcb81	-0.2458935
211	0xbe758a6c	-0.23978585
212	0xbdff9559	-0.12479658
213	0xbd82d19c	-0.06387636
214	0x3bfe36d8	0.0077580027
215	0xbd42ed8b	-0.04758982
216	0x3de2cf0f	0.110746495
217	0x3e214be9	0.15751614
218	0x3e445903	0.1917458
219	0x3e42e388	0.19032109
220	0x3da687ef	0.08131396
221	0x3c5a4bd7	0.013323746
222	0x3d049cc0	0.03237605
223	0x3e305e52	0.1722348
224	0xbd8fcefd	-0.07021902
225	0xbec5fdff	-0.38670346
226	0xbec02e36	-0.37535256
227	0xbe026d7e	-0.1273708
228	0x3e01fb4b	0.12693517
229	0x3b19a37e	0.0023443396
230	0xbd032d34	-0.03202553
231	0xbe1f416b	-0.15552299
232	0xbda10d8f	-0.07863914
233	0xbdafaa68	-0.08577424
234	0xbe234961	-0.1594596
235	0xbe24733e	-0.16059586
236	0x3ce68198	0.028137967
237	0x3d0676d0	0.032828152
238	0xbdb80a8c	-0.08986387
239	0xbe0f61e9	-0.14002194
240	0xbd3b64d8	-0.04575047
241	0x3cc3548c	0.023844026
242	0xbd77c067	-0.060486224
243	0xbd521234	-0.05128689
244	0x3e189068	0.14898837
245	0x3e0bc3c5	0.13648899
246	0xbce84374	-0.028352477
247	0xba018ad3	-0.0004941646
248	0x3df3fdb6	0.11913626
249	0x3de8f2db	0.11374446
250	0x3cbf10f2	0.02332351
251	0x3e02d92e	0.1277816
252	0xbd018ed5	-0.031630356
253	0x3dc584d9	0.09644479
254	0xbd8f6991	-0.07002557
255	0x3ddc74df	0.10764479

const_fold_opt__94 f4 [1, 32, 1]
0	0xbdb1e434	-0.086861044
1	0xbe652938	-0.22379005
2	0xbce6a1ae	-0.028153267
3	0xbd61550c	-0.055012748
4	0x3b06916d	0.0020533458
5	0xbc296736	-0.010339549
6	0xbe137651	-0.14400603
7	0xbdae51bb	-0.085116826
8	0xbe1c304c	-0.15252799
9	0xbcba01d3	-0.022705948
10	0xbd1c7bb7	-0.03820392
11	0xbe094842	-0.1340647
12	0xbd631908	-0.055443794
13	0xbe4021b8	-0.18762863
14	0xbdb13aed	-0.08653817
15	0xbd4e28fa	-0.050332047
16	0xbe0de036	-0.13855061
17	0xbcb3ca57	-0.02194707
18	0xbdbe69e6	-0.09297542
19	0xbd43b928	-0.047784
20	0xbe862785	-0.26202026
21	0xbe2c1366	-0.16804275
22	0xbde016c3	-0.109418415
23	0xbddff00b	-0.109344564
24	0xbc4bc698	-0.012437485
25	0xbd388fbf	-0.045058962
26	0xbd3ce4cf	-0.046116646
27	0xbdb4dce3	-0.08831193
28	0xbe314c8b	-0.17314355
29	0xbdf87612	-0.12131895
30	0xbdd75c7f	-0.10515689
31	0xbdae26fc	-0.085035294

const_fold_opt__89 f4 [1, 64, 1]
0	0x3e003184	0.12518889
1	0xbd17eeab	-0.037092846
2	0xbd10dc0c	-0.035366103
3	0x3c3e18f4	0.011602629
4	0xbcc663d1	-0.024217518
5	0xbd184236	-0.03717252
6	0x3e2d63bf	0.16932581
7	0x3c61c0f4	0.013778914
8	0xbcd4748f	-0.025934486
9	0x3d69208e	0.056915812
10	0xbe0a57c3	-0.13510041
11	0xbe41ebc4	-0.18937594
12	0xba0d734e	-0.0005395905
13	0x3d90e9c4	0.07075837
14	0x3cfb46c0	0.030673385
15	0xbd469b2b	-0.048487823
16	0x3d3fd36c	0.046832487
17	0xbd1ecede	-0.038771503
18	0xbd0b5b52	-0.034022637
19	0x3d11fa57	0.035639133
20	0x3ca7b7eb	0.020473441
21	0xbcf4f1d8	-0.029900476
22	0x3c935ae9	0.017987685
23	0xbcec3c5b	-0.028837373
24	0xbd788866	-0.060676955
25	0x3d1f8959	0.038949344
26	0xbc92977e	-0.017894503
27	0xbcf14ae3	-0.029454654
28	0x3e4e45cf	0.20143817
29	0x3cddb548	0.02706398
30	0xbd0559df	-0.03255641
31	0x3da338d1	0.07969821
32	0x3cab7744	0.020930894
33	0xbd03d105	-0.03218176
34	0xbcb12a10	-0.021626502
35	0x3bd1c014	0.0064010713
36	0x3e6a57e2	0.22885087
37	0xbd485fe9	-0.048919592
38	0xbcb45b8c	-0.02201631
39	0x3d123a65	0.03570022
40	0xbd2a4be7	-0.041576292
41	0x3b7e3184	0.0038786838
42	0xbd0da93e	-0.03458523
43	0xbd13a3c3	-0.036044847
44	0xbe18c58d	-0.1491911
45	0x3df7f5b6	0.121074125
46	0xbcdfafe2	-0.027305547
47	0x3e891fc1	0.2678204
48	0xbd7fe6c8	-0.06247595
49	0xbd091a0a	-0.0334721
50	0x3ce956e4	0.028483815
51	0x3e094c24	0.13407952
52	0xbd32a425	-0.04361357
53	0xbc9a59a0	-0.018841565
54	0x3c90fa49	0.01769747
55	0x3cae462c	0.021273695
56	0xbd3926ce	-0.045203023
57	0x3e2ec3ad	0.17066832
58	0xbc8aa536	-0.016924482
59	0xbc7697f6	-0.015050879
60	0x3c4b602b	0.012413065
61	0xbc8bfc96	-0.017088216
62	0xbdb5a3e7	-0.088691525
63	0x3ccf1e2f	0.025282947

const_fold_opt__86 f4 [1, 64, 1]
0	0xbd0c9536	-0.034321986
1	0xbc6a9a6a	-0.014319042
2	0xbd46ec8b	-0.04856543
3	0x3cbc00b2	0.02294955
4	0xbb258068	-0.0025253538
5	0x3aef78db	0.0018270271
6	0xbd27b103	-0.040940296
7	0xbc630955	-0.013857205
8	0xbd441c85	-0.04787876
9	0xbd717c3f	-0.05895638
10	0xbd8b636b	-0.06806072
11	0xbd2bb685	-0.04192211
12	0xbd05bb1b	-0.03264914
13	0xbcd184eb	-0.025576076
14	0xbd8ea043	-0.06964161
15	0xbd8c9e8e	-0.068661794
16	0xbce6de49	-0.028182166
17	0xbc015765	-0.007894372
18	0xbc9ef456	-0.019403618
19	0xbd254421	-0.040348176
20	0xbd8faf8c	-0.07015905
21	0xbd120bd8	-0.035655826
22	0xbd63b2f3	-0.05559058
23	0xbd7199e3	-0.05898465
24	0xbd45a1db	-0.04825006
25	0xbda8e509	-0.0824681
26	0xbd25e836	-0.040504657
27	0xbd71789d	-0.058952916
28	0xbca2e288	-0.01988341
29	0x3b1ed8e9	0.0024238175
30	0x3abfce5a	0.0014633641
31	0x3e517811	0.20455958
32	0xbd213172	-0.039353795
33	0xbb0b48f1	-0.0021253193
34	0xbb72df00	-0.0037059188
35	0xbd21164f	-0.039327916
36	0xbbb954f6	-0.00565588
37	0xbc679599	-0.014134788
38	0xbccb7a05	-0.024838457
39	0xbdcb9bb7	-0.099418096
40	0xbd3cab7f	-0.04606199
41	0xbd067886	-0.032829784
42	0xbcfaf62c	-0.030634962
43	0xbd0777fc	-0.03307341
44	0xbd489447	-0.048969533
45	0x3e652fda	0.22381535
46	0xbca80258	-0.02050893
47	0xbcdd82e7	-0.027039958
48	0xbd45a994	-0.048257425
49	0x3e6396f7	0.22225557
50	0xbc88f8e9	-0.016720252
51	0xbd14d691	-0.03633744
52	0xbccac010	-0.024749786
53	0xbd70e55d	-0.058812488
54	0xbbd41ab5	-0.0064729103
55	0xbd414fc5	-0.047195215
56	0xbdace3a4	-0.084418565
57	0xbd193857	-0.037407245
58	0xbb2d833a	-0.0026475922
59	0xbccf1da0	-0.025282681
60	0xbda229b5	-0.07918111
61	0xbe400a1a	-0.18753853
62	0x3c874fdc	0.016517572
63	0xbcb76fa2	-0.022392098
